torcs_mlp.pth (torch, 257985 bytes, 24 tensors)

backbone.0.weight f4 [256, 71]
00000000: d9c6 f83e d185 353f 5dcb a4be 2e4f 6b3f
00000010: e4db 5abe 93fe b4be d6f0 f4be ea52 07bf
00000020: 6996 cebd 3ee3 f43c 6031 d43e d48d 8ebc
00000030: adab 0abe 0e00 52be 2cf6 46bd d2d1 803e
00000040: 624f 303f 7127 6a3e 3c3b 88bd 13ef 5abe
00000050: 45a5 d3bd f95b 9cbd 05e0 83bd bff7 183d
00000060: 765c 533c 865f 23be 773e 19bd dc97 023d
00000070: cd87 043e b480 f9ba 2a3f aabc 5f59 ca3b
00000080: d40a a3bb 9136 8c3c 626a ea3c 797d dcbc
00000090: 40a2 9fbc c076 87bc d740 273d 1454 063f
000000a0: 44ea ce3c 3b3d 9d3d 9484 973d 7b18 0e3e
000000b0: b595 8dbd 681a 94bb 87e5 fabb bfb4 1b3d
000000c0: 75db 413c 2592 44bc 413a 883d 9515 3dbd
000000d0: 43c1 02bd c011 62bc 7b9b 0e3c 0ec0 bd3b
000000e0: ff3b 283c 5b64 2b3c 74da a23b e7a0 72bd
000000f0: 36dd 023d d9ff 22bd 78f7 96be 1023 f1be
00000100: 2e44 093e 8c52 46bf e4ca 053e 2375 adbd
00000110: 12ab 17be 4c3a 9cbd e69b d53d cada b5bd
00000120: 0d6a 0d3e ce96 3fbf 0663 bc3c 3c71 a8be
00000130: f0d4 9d3e 2806 cfbe 34b9 863d a0af 043d
00000140: b668 97be 03ad 03be d05f 193d 0e45 5abc
00000150: 7065 c13d 4f74 063e 7e0d 2b3d ba8b a33e
00000160: 9954 0fbc 5216 c13d b732 0f3e a5d5 83bd
00000170: c254 0ebc 318a 3ebd b95e 793d 83b5 2bbc
00000180: dd01 c0bc 99f2 c5bd 3ab7 0dbd 6cca 80bd
00000190: 01e2 9cbb 8710 f1ba 05c1 ecbc 0bb0 0ebb
000001a0: 3a6c b93b 824d 2fbd aa33 4bbc 6393 7fbd
000001b0: 0169 73bd fc7a 2abc 373e 303e 7114 e73e
000001c0: 70d8 bbbb 0df6 d73b 2efe 29bd c7df 43bd
000001d0: 2ef1 8bbc 6053 b3bc 7206 2cbd 32d2 4abd
000001e0: f9df a03a 49f9 1fbd 8ad1 a9bc 55a9 26bd
000001f0: e72f 13bb 0d35 8ebd 164b b0bd 5bd2 96bd
00000200: bd1b 58bd 1082 13bd 7ec0 58bd d03f f0ba
00000210: 6d13 f5bc b53a 49bf a3d9 50be 1d67 8dbf
00000220: 0c40 a4bd 38b5 0fbd e13c 433d a197 fcbc
00000230: 323e 573d 2621 dcbd e466 e6bc 2d64 aa3e
00000240: c5df ffbc 4362 713c 3893 b43b e79e e83f
00000250: 0ac7 3d3c 5208 c4bc 6d70 c6bc 32ff 073c
00000260: 3baa e13c 059e abbd af8b afbc f9f6 0c3c
00000270: 7650 5c3d a2a4 93bb 53ba 9fbc c18d 143d
00000280: 5780 89bd 69b6 fd3c 4167 24bd 7ee6 06bb
00000290: 4f0b 4abd 46ca 24bc 0d2f 8f3c 287e 23bd
000002a0: fbce 90bb e99b 0f3b d69f 90bb f7c3 c5bc
000002b0: 1c27 85bc 3540 51bb 59bb 363b b9ed f83b
000002c0: d719 203c 0c13 623c b76e 44bc df81 f2bc
000002d0: 0a43 4dbc 3f7a f33a e092 5e3b 7c2c 65bb
000002e0: 0d1a 4ebc 34e8 3e3c 3038 8abb 6574 9c3b
000002f0: a6bc 85ba 36cc 143c b8e8 ab3c c791 00bc
00000300: f229 8b3c 5fb4 2d3d 82ae a03b b52a e23b
00000310: 67fe 433c 9d12 10bc 4c5a bdbc f94c b939
00000320: 7c74 b6bb 4ef2 a8ba 9891 58bc c585 1c3c
00000330: 9375 0abf 6120 26bf 2a3d eabe a2fe 0cbf
00000340: d9c5 b7bc b7de b2bc dd68 73bc 28d1 3a3d
00000350: 75bc faba 7d89 46bd d2b8 3b3f c8e3 b23e
00000360: b4a7 03bf a4c8 ae3d 3af2 01bc 5224 7bbd
00000370: 8391 16be 8b74 74bc 7f92 fd3c 923e 5e3c
00000380: 1502 3d3d 8f16 433d 1a98 0b3e eeed dbbe
00000390: 1843 9dbe 834d 653e 4cee 4cbe b1d9 a83d
000003a0: 07c7 68bc 400b 8b3e 5e3d 9cbd 5ee4 06bd
000003b0: 1279 c0bc e6e1 89bd 209e 8d3d bdf0 d2bc
000003c0: c969 7bbd 1593 c5bc 36e4 2cbd ec35 16bd
000003d0: 8110 d8bc 9b07 e7bc ff14 8bbd 5a39 c5bd
000003e0: 7424 a8bd 8924 a8bd 76bd 9abd 4283 4cbd
000003f0: d891 ea3c 95f5 75bd 8205 99bd 3ea8 41bd
0.4858921 0.7090731 -0.32186404 0.91917694 -0.21372944 -0.35350475 -0.47839993 -0.5286089
-0.10087282 0.029893514 0.4144392 -0.017401613 -0.13542052 -0.20507833 -0.04857461 0.2516008
0.6887113 0.22866608 -0.06651923 -0.21380262 -0.10334257 -0.0763473 -0.06439213 0.037345644
0.012900462 -0.15954408 -0.037413087 0.031883106 0.12942429 -0.0019035549 -0.020782072 0.0061752046
-0.004975656 0.017115863 0.02861518 -0.026915299 -0.019486547 -0.016536117 0.04083332 0.52472043
0.02525819 0.076776944 0.07398334 0.13876526 -0.0691332 -0.0045197494 -0.0076567563 0.03801417
0.011832108 -0.011997734 0.06651736 -0.04616316 -0.03192259 -0.013798177 0.008704062 0.005790717
0.01026821 0.010460938 0.0049698893 -0.05923548 0.031949244 -0.039794777 -0.2948568 -0.47097063
0.13404915 -0.77469707 0.13065678 -0.08469608 -0.14811352 -0.07628307 0.10430126 -0.08879621
0.13809986 -0.74839485 0.022996437 -0.3289889 0.3082652 -0.40434384 0.065782934 0.03239405
-0.29572076 -0.12858967 0.03744489 -0.013322128 0.09443176 0.13130306 0.041760914 0.3194254
-0.008748197 0.094280854 0.1398419 -0.06437234 -0.0086872 -0.04651851 0.06088135 -0.0104802875
-0.023438388 -0.096654125 -0.034598567 -0.06288609 -0.004787684 -0.0018391766 -0.028900633 -0.002177241
0.0056586536 -0.042798527 -0.012402454 -0.06239642 -0.05942631 -0.010405298 0.17211233 0.45132783
-0.0057325885 0.006590611 -0.04150217 -0.047820833 -0.017082777 -0.021890342 -0.041998334 -0.049516864
0.001227378 -0.039056096 -0.020729799 -0.04068883 -0.0022458972 -0.069437124 -0.086080715 -0.07364341
-0.05276083 -0.03601271 -0.05291795 -0.0018329564 -0.02991649 -0.78605205 -0.20395522 -1.1047093
-0.080200285 -0.035084933 0.04766548 -0.030834021 0.05254955 -0.1074851 -0.028125234 0.33279553
-0.031234631 0.0147329 0.005510714 1.8173493 0.011583099 -0.023929749 -0.02422353 0.008300589
0.027546993 -0.08379749 -0.021428911 0.008603805 0.05378767 -0.0045057097 -0.019498026 0.036268
-0.06713932 0.030970769 -0.040137533 -0.0020584161 -0.04932719 -0.010057991 0.01747849 -0.039915234
-0.0044192052 0.0021912998 -0.004413585 -0.024141295 -0.016254 -0.003192914 0.0027882664 0.007596698
0.009771786 0.013798486 -0.011989287 -0.029602943 -0.01252819 0.0018575861 0.0033962056 -0.0034969142
-0.012579453 0.011652041 -0.004218124 0.0047746175 -0.0010203316 0.009081891 0.020984992 -0.007847256
0.016987775 0.042408343 0.0049036155 0.0069020637 0.01196251 -0.0087935 -0.023114346 0.000353433
-0.0055680852 -0.0012889595 -0.013218306 0.0095533775 -0.54085654 -0.64893156 -0.4574979 -0.5507604
-0.022433208 -0.021834714 -0.014856544 0.045609623 -0.0019129651 -0.048470963 0.7332889 0.34939408
-0.5142777 0.08534363 -0.0079312865 -0.061313935 -0.14703946 -0.014920364 0.030953644 0.013564723
0.046144564 0.047628935 0.13632241 -0.42954963 -0.3071525 0.2239285 -0.20012778 0.08244646
-0.014207608 0.2715702 -0.07628892 -0.03293263 -0.02349523 -0.0673254 0.069149256 -0.025749559
-0.06138018 -0.024117986 -0.042209826 -0.036672518 -0.026375057 -0.028201869 -0.06791114 -0.096300796
-0.08210078 -0.082100935 -0.07555668 -0.049929865 0.028633997 -0.06004866 -0.07471754 -0.04727959

backbone.0.bias f4 [256]
00000000: 5527 06bf 57e7 f2bf d854 383e 42f2 e9bf
00000010: bcab 96bf 9798 13c0 9024 28bf e77c b1bf
00000020: 36a4 3dbf c5bd 13be 7375 03c0 f9ef e4bf
00000030: 3f7f 0bbf 2cf2 ce3c 234f b6bf fa75 6dbf
00000040: 0016 adbf 4ffa 17bf 86b8 c73e 5717 dfbf
00000050: 20f7 07c0 f2ad 31bf a6d6 c8bf e4f8 61bf
00000060: 00c3 edbe aec3 13bf 958b dfbf c896 3bbf
00000070: ee1f d0be c3c8 25bd 280c a8bf 9600 d9bf
00000080: 9cf7 7cbf b984 aabe 05e6 cb3e 0d48 8abf
00000090: 539e bfbf 30a1 b13e 1870 91bf 15df f73e
000000a0: d07c 7bbf d698 8ebf ad67 f23d ae65 f2be
000000b0: b286 0bbf d3be f2be 704d a0bf c4aa 0cbf
000000c0: 313b 0dc0 d6d6 77bf 253a b5bf 1676 a9be
000000d0: 9159 1fbf 8aa9 e3be e472 9abf 81b2 a0bf
000000e0: e5a0 5dbf 641e 093f 7074 87bf 39b6 1bbf
000000f0: 7a56 bdbf d5e5 09be daa1 1fc0 4fdd bbbf
00000100: 6614 cbbf 319d 22bf 177b e0be c37f c5be
00000110: ac57 8cbf 8c37 823d b45e 93bf 146c a6bf
00000120: 42a1 90bf 1ffd 83bf fb5f 0ec0 8061 84bf
00000130: b0a6 4cbf 1b76 5fbf 46f1 c33d 22c0 fabf
00000140: 3cf9 d2bf a36c fabf 6ed0 a1bf c2c1 11bf
00000150: dcb0 3ebf 0db4 8dbf 30ba 88bf 7d09 06c0
00000160: 6690 90bf 2cd4 d73d 2638 86be de28 4cbf
00000170: a29c 27bf b7e4 d0bd 5d7d 70bf 5cb2 f8be
00000180: 71c8 23bf 9d16 87bf 2eed 80bf 9074 d0bf
00000190: 403d 54bd 982c 31bf c31c a5bf abd9 3abd
000001a0: b6f1 4cbf 415e 643e 8d0c 10bf 207a 72bf
000001b0: 230e b8bf bf4c 04c0 69bc d0be 72bc 88bf
000001c0: 6b6a edbf 6de5 c8bf 6ccb 72bf f23a 90bf
000001d0: 579c 093c bf47 08c0 5e83 1bbf 3dff d53d
000001e0: fce6 d3bc 5a4e 03bf ef1b 09bf 09a0 473e
000001f0: 55b6 9abf e129 e8bf e2b0 e4be a50c 98bf
00000200: fadc febf 3cb8 b1bf 14ae 433e 4380 babf
00000210: 6f2a eabe 4d4c 013c 16f1 20bf 3491 2dbf
00000220: 5dc0 00c0 3166 56bf 1653 14bd 33da a3bf
00000230: f07f 3fc0 a8c4 8fbf d4a0 9dbf 9cd9 9bbf
00000240: f09c f9bf 64f9 5cbf 9c0c 9bbf 0a3f 49bf
00000250: e8ab 20bf 4f56 94bf 36f2 f6be 3137 013e
00000260: f5ca 08bf 19cc 04c0 3376 0bc0 393e 33bf
00000270: e396 bebe 7673 0b3e cce4 28bf 66fe 6cbf
00000280: f7b5 c0bf 96af b7bf 3c6c 30bf 28bd 63be
00000290: d675 08c0 4bb4 253e fbf6 90bf 85f1 c2be
000002a0: f04d 3ebf db93 84bf 74e2 0d3e 1daf 72be
000002b0: a7cf a5bf 4b8e b33e cdd1 cbbf 79d0 6abf
000002c0: cb1e 92bf 6182 08bf bbc5 d6bf 6b26 5cbf
000002d0: 97f6 d9bf c37c a5bf 1e27 06be 4ea5 0ac0
000002e0: 2fed 74be 6bfc b2bf 646a 00c0 2cf4 a5bf
000002f0: 475a c1be 3e6b bcbf 627b 24c0 e9a1 fbbf
00000300: 1949 9fbf 21de 6abf 1069 aebf 8c41 89bd
00000310: 1d90 44bf 605c fdbf a580 01c0 45c2 77bf
00000320: d695 83be ac06 51be fea2 dabf a567 b4bf
00000330: 1ab6 b8bf 1e69 aabf 5084 c9bf 1c7b 123d
00000340: 2079 05c0 bc9e b6bf 7f4e c5be c6cb 95bf
00000350: 7be1 5bbf 9325 adbf 1b25 4bbf 2958 7dbf
00000360: a998 aebf 516b 8b3e fb26 053e 5fef 98bf
00000370: ce9d 80bf a7dd dabe c7ed cebe 5fa9 abbf
00000380: b7b8 07c0 8c87 8ebf 046a cbbf 98f4 88bf
00000390: d4ce a5bf 80dc 40be 35ec 11c0 5fc4 26bf
000003a0: bd5e 8cbf 0f10 69be 2fae 7ebf 8f01 e0be
000003b0: 7b74 e3be afcc a3bf ab66 513f 8aa0 47bf
000003c0: b79e 8cbf 4de3 ebbf bcea d9bf b443 d4bf
000003d0: f574 05c0 4946 98bf 9a28 08c0 6335 78bf
000003e0: d35b b9bf a74d 4a3c 740d a1bf f59d 25bf
000003f0: 5364 81bf cc01 4cbf 8b1a 01bf 3616 253d
-0.52403766 -1.8976849 0.18001115 -1.8277056 -1.1771159 -2.3061883 -0.6568079 -1.3866242
-0.7407869 -0.1442786 -2.0540435 -1.7885734 -0.5449104 0.02526196 -1.4242901 -0.9275814
-1.3522339 -0.59366316 0.39007968 -1.7428998 -2.1244583 -0.69406044 -1.5690506 -0.882704
-0.46437836 -0.5772046 -1.7464472 -0.7327695 -0.4064936 -0.040474664 -1.312871 -1.6953304
-0.9881532 -0.33304384 0.39823928 -1.0803238 -1.4970192 0.3469329 -1.1362333 0.48412386
-0.98237324 -1.1140392 0.11836181 -0.473432 -0.54502404 -0.47411212 -1.2523632 -0.5494807
-2.2067378 -0.9681219 -1.4158369 -0.33097905 -0.6224604 -0.44465286 -1.2066312 -1.2554475
-0.8657363 0.53562 -1.0582409 -0.60824925 -1.4792016 -0.1346658 -2.4942536 -1.4676913
-1.58656 -0.63521105 -0.4384391 -0.38574037 -1.0964255 0.06358251 -1.1513276 -1.3001733
-1.1299212 -1.0311621 -2.2246082 -1.0342255 -0.79941845 -0.8728959 0.09567504 -1.9589884
-1.648231 -1.9564403 -1.2641733 -0.56936276 -0.74488616 -1.1070572 -1.068182 -2.094329
-1.1294067 0.105385154 -0.26214713 -0.7974986 -0.6547338 -0.10199874 -0.9394129 -0.48573577
-0.63977724 -1.0553776 -1.0072381 -1.6285572 -0.051816225 -0.6920867 -1.2899402 -0.04561774
-0.8005632 0.2230158 -0.5626915 -0.947176 -1.4379314 -2.0671842 -0.40768746 -1.0682509
-1.8548101 -1.5695015 -0.9484165 -1.1267989 0.008399091 -2.129379 -0.60747325 0.104490735
-0.025866978 -0.5129143 -0.5355825 0.19494642 -1.2086893 -1.813778 -0.446662 -1.1878859
-1.9911187 -1.3884349 0.19109374 -1.4570392 -0.457355 0.007891727 -0.6286787 -0.6779969
-2.011741 -0.8374968 -0.03621205 -1.2800964 -2.9921837 -1.123189 -1.2314706 -1.2175784
-1.9501019 -0.8631804 -1.2113223 -0.78611815 -0.6276231 -1.1588839 -0.48231667 0.1261871
-0.5343469 -2.0749571 -2.1790893 -0.7001682 -0.37224492 0.13618264 -0.65974116 -0.9257568
-1.5055531 -1.435046 -0.6891515 -0.22240126 -2.1321921 0.16182058 -1.1325372 -0.3807489
-0.74337673 -1.0357622 0.13855916 -0.23699613 -1.2953995 0.35069498 -1.5923401 -0.91724354
-1.1415647 -0.5332394 -1.6779093 -0.8599612 -1.7028378 -1.2928699 -0.1310086 -2.1663394
-0.23918603 -1.3983282 -2.0064936 -1.296514 -0.3776419 -1.4720228 -2.5700307 -1.9658786
-1.2444183 -0.9174519 -1.3625813 -0.06701955 -0.767824 -1.9793816 -2.0234768 -0.96780807
-0.25700253 -0.20412701 -1.7080991 -1.409413 -1.4430573 -1.3313329 -1.5743504 0.035761937
-2.085518 -1.4267192 -0.3853645 -1.1702812 -0.8589093 -1.3527092 -0.79353493 -0.98962647
-1.3640338 0.27230313 0.13003151 -1.194805 -1.0048158 -0.42747232 -0.40415785 -1.3411063
-2.120649 -1.1135116 -1.5891728 -1.0699644 -1.2953744 -0.18834114 -2.280042 -0.6514339
-1.0966412 -0.22760032 -0.99484533 -0.4375119 -0.44424805 -1.279684 0.81797284 -0.7797934
-1.0985936 -1.8428742 -1.702476 -1.6583161 -2.0852635 -1.1896449 -2.1274781 -0.9695646
-1.4481148 0.012347615 -1.258223 -0.6469415 -1.0108742 -0.7969024 -0.50431126 0.040304385

backbone.2.weight f4 [256]
00000000: a17a 273f 2818 0e3f f1db 463f 229d e53e
00000010: 26f4 c33e 52eb c93f 362f 2b3f 219b 613f
00000020: d3f4 243f a776 383f 817f 193f 2fc0 213f
00000030: ab55 4f3f d211 d13f e8d0 1b3f 9adf 723f
00000040: a351 283f 4aae 2840 da60 8b3f e194 403f
00000050: cc84 173f b6c6 7b3f 95cb 0e3f ac74 f93e
00000060: ed6e 1340 d3d9 133f 752b cc3e 9332 9e3f
00000070: 9df6 093f bb90 ae3f be78 3e3f f964 3a3f
00000080: af03 553f ff19 393f 35f1 1e40 d4cc 1c3f
00000090: 2f2a 5d3f 2438 6d3f c095 433f 9212 6f3f
000000a0: 7485 503f 9bef 4c3f d3e8 303f 3b0f 233f
000000b0: 07f5 783f aa09 443f 0df0 be3e bfdf 053f
000000c0: be39 f13e cda1 6d3f 6f43 2e3f 7be5 9c3f
000000d0: c565 483f dd2b 393f 7689 373f 2b99 893f
000000e0: 90eb 693f 7ed9 673f a473 fe3e fcec 683f
000000f0: c342 3d3f bd49 653f aca8 cf3e 83d8 e03e
00000100: 9a26 0b3f e207 443f 7535 7e3f 1db4 7c3f
00000110: ee69 2f3f 9aba 0840 f8a4 333f 64d0 583f
00000120: 49de 933f a869 1e3f c139 a83f b288 2f3f
00000130: e7fa 7e3f 4337 2e3f 5699 4d3f 9384 1a3f
00000140: 422d 1e3f 902d 8a3f 00e0 293f 3891 303f
00000150: 48ea 0e3f bb0d 4f3f eec7 2e3f d5d0 6b3f
00000160: 5d90 1a3f 175b 3b3f 91e8 2c3f 81fd 4e3f
00000170: 2ed3 023f d8fa 623f a879 373f 5a29 bb3f
00000180: 2d69 ff3e 5266 eb3e 985b 323f 9676 833f
00000190: 3ac2 0a40 b3a9 343f 968d 9d3f 89ed 523f
000001a0: 5a7b 443f ea48 a53f 263b 743f 193f 133f
000001b0: e403 3c3f 963b 073f 05cb 733f 9e83 6e3f
000001c0: fe38 0f3f 5ef1 423f 9088 0b3f 1879 1f3f
000001d0: b049 0c3f 228e c33f 3b36 433f 69fa 333f
000001e0: 6b70 453f 3213 1140 e9d9 893f f2c6 183f
000001f0: a6d0 6d3f 551d 063f 8908 873f 2685 573f
00000200: d545 6f3f a6e3 223f e207 ad3f 9861 093f
00000210: 9ad2 3d3f f058 5c3f 4ceb 513f afa8 483f
00000220: 67fe 0a3f 1358 2a3f 1282 803f 6a7a 6c3f
00000230: e8fa 033f 2ec3 0b3f 8588 3f3f d44a 993f
00000240: d0b7 283f d433 083f 492a e33e 433a 393f
00000250: ea2c 633f 2027 4c3f 8061 713f 5bcf 4a3f
00000260: 1383 af3f 92ef 8c3f 7b30 893f b111 923f
00000270: ea15 8f3f 3cf2 683f 457e 3f3f 9558 5c3f
00000280: 0f35 3f3f 3c25 8d3f fe20 1b3f a5ad 313f
00000290: 1022 863f 924e 5b3f 49ea 413f 4685 fd3e
000002a0: db9f 3a3f fc07 133f 0bb0 9e3f 72a2 4c3f
000002b0: cb79 2e3f 0f04 6c3f 473b 5a3f f641 263f
000002c0: b9b2 2c3f fc47 353f 4435 a13f 10d4 693f
000002d0: ed1b 0e3f 1975 933f 7e2c 0a3f 90f3 293f
000002e0: 2fae 4f3f 0260 343f 2873 1d3f c6f2 db3e
000002f0: 363e 133f 7d99 223f 23d4 df3e f21d 4c3f
00000300: cb41 4f3f 7b71 153f 5ab5 1e3f e391 923f
00000310: 6d17 5a3f b5e0 5e3f 58d0 103f 2aef 3d3f
00000320: 23d2 603f ad5e 5b3f f654 173f ec43 253f
00000330: ec85 4c3f 9199 053f 029b 7e3f 8570 a03f
00000340: ec3d a23f 2560 5b3f fac8 5b3f aec0 603f
00000350: ecd1 3c3f 3391 783f 77c8 373f 4a5d 1c3f
00000360: 1bdc 633f 44f2 3e3f a1d7 303f 0e59 693f
00000370: 4c05 293f 402f 743f da3e f83e 1627 bf3e
00000380: 97e7 8e3f 5c58 833f 0f63 593f d336 363f
00000390: 4bca c53e 7f9d 3f3f dcf9 863f 8b8b 4a3f
000003a0: b16e b53f 8df6 353f 72c6 6e3f b4a6 543f
000003b0: 65fb 453f 1997 0b3f f6a1 523f b2c7 8c3f
000003c0: 8d60 313f 375f 293f c213 113f 9021 2d3f
000003d0: f9a7 883f 24d7 713f 2a1c bc3f 64dc 063f
000003e0: 4223 603f bd05 b63f cf5d 413f 460a 5e3f
000003f0: 2a7f 283f aa81 523f 1808 813f 18dc 8d3f
0.6542149 0.5550561 0.77679354 0.44846445 0.38272208 1.5774939 0.66868913 0.8812733
0.6443607 0.7205605 0.5996018 0.63183874 0.80990094 1.6333563 0.6086564 0.9487244
0.6574957 2.6356378 1.0888932 0.7522717 0.59187007 0.98350084 0.5577939 0.48721826
2.3036454 0.5775425 0.39876905 1.2359184 0.53891927 1.3637918 0.7440299 0.7281032
0.83208746 0.7230529 2.483472 0.6125004 0.8639249 0.9266379 0.76400375 0.9338771
0.81453633 0.8005311 0.6910526 0.63695115 0.9724888 0.76577246 0.3729252 0.52294534
0.47114366 0.92825013 0.68071645 1.2257532 0.7828029 0.72332555 0.71694124 1.0749868
0.91375065 0.9056624 0.49697602 0.9098661 0.73929995 0.8956564 0.40558374 0.43915185
0.54355776 0.7657453 0.9930032 0.9871233 0.6852101 2.1363893 0.701736 0.8469298
1.1552211 0.6187997 1.3142625 0.68567955 0.99601597 0.6805307 0.803121 0.6035854
0.6178781 1.0795155 0.6635742 0.68971586 0.55826235 0.80880326 0.6827382 0.9211553
0.6037653 0.7318587 0.6754237 0.80855566 0.51103485 0.8866401 0.7167001 1.4621994
0.4988493 0.45976502 0.6967101 1.0270565 2.1681046 0.7057144 1.2308834 0.823937
0.7675072 1.2912877 0.95402753 0.57518154 0.73443437 0.52825296 0.9523166 0.9316958
0.5594634 0.7614955 0.5450525 0.6229415 0.5479994 1.527775 0.76254624 0.7030397
0.7712466 2.2667966 1.0769626 0.59678566 0.928965 0.5238851 1.054948 0.84187543
0.9346593 0.63628614 1.3518031 0.5366454 0.7414948 0.8607321 0.8199966 0.7838239
0.5429444 0.6654064 1.0039694 0.9237429 0.5155473 0.54594696 0.7481769 1.1975961
0.65905476 0.53204083 0.443682 0.72354525 0.8874041 0.797472 0.942894 0.7922265
1.3711876 1.1010611 1.071792 1.1411649 1.1178563 0.9099462 0.74802047 0.86072665
0.74690336 1.1026988 0.6059722 0.69405586 1.0479145 0.85666764 0.75748116 0.49515742
0.7290017 0.5743406 1.2397474 0.7993537 0.6815459 0.9219369 0.852467 0.649444
0.6746021 0.70812964 1.259438 0.91339207 0.5551136 1.152011 0.5397414 0.6638727
0.8112516 0.70458996 0.6150384 0.4295866 0.575168 0.63515455 0.43716535 0.7973319
0.8095977 0.5837628 0.6199547 1.1450771 0.85191995 0.87061626 0.5656791 0.7419306
0.87820643 0.8569134 0.59114015 0.64556766 0.7989185 0.5218745 0.99455273 1.2534338
1.2675147 0.8569358 0.8585354 0.87794006 0.73757815 0.97096556 0.7179026 0.6107985
0.8900773 0.7458842 0.69079024 0.9115151 0.6602371 0.953846 0.48485452 0.37334508
1.1164426 1.026134 0.84916776 0.71177405 0.386309 0.74849695 1.0545001 0.79119176
1.4174405 0.7107933 0.93271554 0.8306687 0.7733672 0.5452743 0.8227838 1.0998442
0.6928795 0.6616091 0.56670773 0.6762934 1.0676261 0.94468904 1.4696095 0.5268004
0.875538 1.4220501 0.75533766 0.86734426 0.65819037 0.822291 1.0080595 1.1082792

backbone.2.bias f4 [256]
00000000: 7c46 693e db57 043d f2c5 c83e 16f8 a4be
00000010: 0e94 6fbd dbd1 95bc 320e 833e 5ef5 183e
00000020: 52b1 d43e 7f9d 1b3e 3cab fd3d 82ac 1d3e
00000030: 86bb d03e 4deb 7d3e 8df3 7e3e 7a9a 653e
00000040: c5e5 fe3d b39d 213f e8e1 d73e 8c40 2b3e
00000050: 2110 69be 7a20 ef3e 370e 263d b546 d5be
00000060: 9b9a 083f 1fad a8be 731b 81bd e72c 043f
00000070: 90d0 29be 24a7 7b3f aa10 013e 5363 1a3e
00000080: 0960 9e3e 9f49 a43e fed5 273f 1d12 8f3c
00000090: 68ab 593e e226 033f 9dd8 6b3e c431 533e
000000a0: fa3d 2e3e b98e 9e3d 4ed4 c73e a9be 203e
000000b0: f242 c93e 2fa1 da3e 4e2b 2dbc 3353 b93d
000000c0: 068b 89bf 2068 a33e 7d2d 483e 038d 603f
000000d0: dc52 fb3e a7b8 9b3e c15b 8f3e b228 263e
000000e0: b169 8a3e d28c 213f d82e d1bb 67b3 cf3e
000000f0: 7dff 433e 73ac 5d3e 54cf 36be 1484 8c3d
00000100: a86c 163d 257f 873e 9d99 033f 8b49 183f
00000110: 340b c43e 3c2f 143f 7818 1f3e bce8 413e
00000120: d3f1 df3e 5d98 d53d de71 833e ed9f 163e
00000130: b33d e93e 9707 6f3e 8c94 433e 62f6 b239
00000140: 9960 a93d 5147 b63e 9c1f d93d 58d0 913e
00000150: cbe4 db3d b6b2 ef3d 1d37 cf3d efe7 0c3d
00000160: bd64 433e ff81 763e bacd 693e ed65 d43e
00000170: a3b5 553d 1f1d bf3e 8170 fb3d c1c6 ae3e
00000180: e30c f93d f929 bbbd 7b3b 4c3e 6730 9aba
00000190: f658 0e3f 955f c7bc 97d7 053f b0fa a33e
000001a0: 5b5a c13e 07ad 6e3f 57bd ac3e cd3c 293e
000001b0: ac87 e03d 9c8e a73c 7429 203f acad b23e
000001c0: 56af f43d 381f a03e d490 e13c 808a 4b3e
000001d0: 98a9 493e 9969 ffbd e943 613e ff7f 883e
000001e0: 8018 9f3e 5824 0b3f 2988 bb3e cda2 863d
000001f0: 0a52 2a3e 051d 2cbe a720 b23e 22c1 833e
00000200: cf27 a23d d34f 573c f479 733f cf74 0b3d
00000210: 3e66 be3e ceeb 023f 27b2 c43e 32b2 053f
00000220: 28c9 5dbd 2b45 803e 355b 083f fa80 bf3e
00000230: 7995 5ebf 3768 7f3d 1114 903e 1e1f 723e
00000240: a317 1e3e bbbc 813d a2cb b7bd 8917 9e3e
00000250: 5186 c73e eefe 2c3e cce5 193f a695 bd3e
00000260: 9e7d 8a3e f001 033e 3aaa a83e bfd7 fb3e
00000270: 5a07 0e3e a02b a53e bf81 563e 8877 a13e
00000280: c9aa 403e a5ba c63e abb0 0dbd 41ca b33e
00000290: 02d1 163e 5c1f eb3e ecd9 203e c31b 213e
000002a0: 00ab 653e 05d8 733e 6a73 7d3e 90d2 953e
000002b0: 3f7a 323e bc51 163f a4ea 1d3e 5fc7 f8bd
000002c0: 5246 523e 69cc ad3e 04c4 bc3e 3e3e a43e
000002d0: 86db 8f3d 6434 f23e 9bdc 873e 15b9 5a3d
000002e0: 323c c23d 6063 463e 0aa2 6cbe ea80 57be
000002f0: 0239 ae3e 7032 b33d d87c dfbe d49d 363e
00000300: 4a48 3e3e 99d9 343e 190a 033e 9f1f f13e
00000310: 9a06 e03e 8376 7c3e f1b1 9e3c 8a74 6a3e
00000320: ebdd 683e 2421 b33e 6d20 cdbc 00f8 783d
00000330: e272 433e c97d 153d 33c9 a03e e62b 843e
00000340: 638e c13d 53d8 3b3e a18d 153f 31ae 793e
00000350: 5c60 7f3e 0e95 c33e e585 bf3e 5325 433d
00000360: ef49 903e 0ee1 e23e dc2e 983e e096 b13e
00000370: 93d0 143e 32d7 1d3f 1ba5 493e c843 d8be
00000380: dde8 253e c379 b93e 066b 7b3e 6a7f 483e
00000390: 278b 0ebc 4321 8a3e ba26 dcba 8ab8 043f
000003a0: 1515 b23e c550 aa3e 6643 d73e 78e3 103f
000003b0: cbd8 af3e 86dc 913d d698 2e3f d002 e03e
000003c0: 7e8c c33d 75b8 b53d 0622 973d 027e 9dbd
000003d0: 904b ca3d 2852 183e a725 683d d90d 91bd
000003e0: 9a35 503e be19 7b3e e17c 293e 92e4 9c3e
000003f0: 0733 913d 45ee b63e b960 e73e 38ae d23e
0.22780794 0.032310348 0.3921352 -0.32220525 -0.058490805 -0.018288543 0.25596768 0.1493735
0.41541535 0.15196799 0.12386176 0.15397838 0.4076807 0.24796791 0.24897595 0.2242221
0.12446169 0.63131255 0.4216454 0.16723841 -0.22760059 0.46704465 0.0405409 -0.41655508
0.5336091 -0.3294458 -0.06304064 0.51631016 -0.16583467 0.9830191 0.12604013 0.15076952
0.30932644 0.32087418 0.655609 0.017464692 0.21256793 0.51231205 0.2303185 0.20624453
0.1701583 0.07742066 0.39029163 0.15697731 0.39308888 0.42701098 -0.010569407 0.09049072
-1.0745552 0.3191538 0.19548602 0.87715167 0.49086654 0.30414316 0.2799969 0.16226462
0.2703376 0.631055 -0.006383758 0.4056656 0.1914043 0.21647815 -0.17852527 0.068611294
0.036724716 0.2646419 0.5140627 0.5948722 0.38289797 0.57884574 0.15536678 0.18936437
0.43739185 0.104294516 0.2567281 0.14709444 0.45554885 0.23342739 0.19099635 0.00034134375
0.08270378 0.35601285 0.10601732 0.28479266 0.10736998 0.11704008 0.10117934 0.034400877
0.19081397 0.24073027 0.22832385 0.41484013 0.052175175 0.37326905 0.12277318 0.34136012
0.12160661 -0.09138865 0.19944565 -0.0011763693 0.55604494 -0.02433757 0.5228209 0.32027197
0.37764248 0.9323277 0.33738205 0.165271 0.10963377 0.020453744 0.6256325 0.34898126
0.11947505 0.31273818 0.02753488 0.19877052 0.19693601 -0.12471313 0.21998562 0.26660153
0.3107338 0.5435233 0.3662732 0.065740205 0.16632858 -0.16807945 0.34790537 0.25733286
0.07917749 0.01314159 0.9510796 0.034046944 0.3718738 0.5114106 0.3841717 0.5222503
-0.054146916 0.2505277 0.5326417 0.3740309 -0.8694683 0.062355246 0.2814031 0.23644683
0.15438704 0.063348256 -0.08974387 0.3087733 0.38969663 0.16894123 0.6011627 0.37028235
0.27048963 0.12793708 0.32942373 0.4918804 0.13869992 0.32259846 0.20947932 0.31536508
0.1881515 0.38814273 -0.03459231 0.35115245 0.14728168 0.45922363 0.1570813 0.15733247
0.22428513 0.23812874 0.24751058 0.2926221 0.17429446 0.58718467 0.1542154 -0.12147402
0.20534638 0.33945015 0.36868298 0.32078737 0.07024293 0.47305596 0.26535496 0.053399164
0.094841376 0.19373846 -0.23108688 -0.2104527 0.34027869 0.087498546 -0.43649936 0.17833644
0.18582264 0.17661132 0.1279682 0.47094437 0.43755037 0.24654584 0.019371958 0.22896019
0.22740905 0.34986222 -0.025039876 0.060783386 0.19086793 0.03649691 0.31403503 0.25814742
0.09450986 0.1834424 0.58419234 0.24382855 0.24939102 0.38199657 0.3740684 0.047643017
0.28181407 0.44312328 0.2972325 0.3468542 0.1453269 0.61656487 0.19691889 -0.42239213
0.16202112 0.3622571 0.24552545 0.19579855 -0.008700169 0.26978502 -0.0016796209 0.51844084
0.3478171 0.33264747 0.42043608 0.5659709 0.34345087 0.0712214 0.6820196 0.43752146
0.09548281 0.08873073 0.07379536 -0.0769005 0.09877694 0.1487509 0.056676533 -0.07082719
0.20332947 0.24521539 0.16551544 0.30643135 0.07089811 0.3572866 0.4519098 0.41148543

backbone.2.running_mean f4 [256]
00000000: f4f0 be3e 8b11 0c3e 0ae1 9d3e 2596 2e3e
00000010: fa76 3f3e 8874 253d 34e4 973e 479e b13d
00000020: ac09 f53f 6558 f53e 96fc cf3e c64b b03d
00000030: f447 de3e 7c84 a33d 0011 653f e6b0 423e
00000040: c996 573e f8cc 9d3f d8e9 973f 29e9 a03e
00000050: 1da2 1c3d 6644 ea3e 018b 823d befe 1d3f
00000060: d117 903f 147f b73e 452d c23e 77e4 523e
00000070: 3c0e 913e df8c 803f b18b 293e caa1 953e
00000080: f76c 9e3e 1694 223f 61db f53f f0d5 093d
00000090: 8c52 a43d e96e 6e3f 6a1e 8a3e bceb 003f
000000a0: 9de7 013e 989a 4d3d 1e24 933e 1015 023f
000000b0: 26cf 9e3e b2c7 3f3f 5b43 863e b944 523e
000000c0: 20ff c93e 0060 a93e 8a42 603e d755 8f3e
000000d0: bfb1 da3f 2e72 d63e 0cce 7e3f 5d95 873d
000000e0: f29e ad3e ed28 853f 62cb 2e3e 6059 153f
000000f0: 1e48 2a3e e8c1 c23e 6a7f 1f3e eec0 273e
00000100: ea10 ae3e 2710 5e3f b510 0f3f 8b03 4d3f
00000110: c0e4 833f 653d c63f 798e 083e a118 463e
00000120: bc78 9e3e 3fbd 163e 5981 c43c cfa0 333e
00000130: bf22 ac3e 84f0 6c3f c794 143f b4c4 c53e
00000140: 1615 033e 2aae 3d3e 6077 203e b557 0f3f
00000150: 494b 533e 4b29 273e 31d8 af3e a5c2 f73d
00000160: d6f6 473e c2da b03e fcf7 fa3e 708d b43e
00000170: bc12 e43d fd01 463f 1a56 8c3e e534 d53e
00000180: 1853 bf3e 7ad3 753e f888 cf3e 24bb 283c
00000190: de39 b33f 2004 083f fb75 873e 3a6a 223f
000001a0: 9885 a23e 6cf2 a43f 7bcf 013f 82ca 103e
000001b0: d573 943e 6d50 fd3e abc2 0040 bbbf d13e
000001c0: 3dae 533e ed2f 7a3f 0bae e33d 7700 9a3e
000001d0: cc04 e23e a675 0a3d 7f55 123f 03a3 dd3e
000001e0: 110a b43e a589 923f 94de 8a3d 66c5 ab3e
000001f0: 7071 503e 4c5c 723f 5469 353f b5cb 4f3e
00000200: e589 f23d 7638 963d 85a7 9b3f 26ba ad3d
00000210: 2c1c 203f 8125 233f ebc3 ee3e 6e87 0a40
00000220: fdb7 143f 2594 893e 5fca 7d3f b634 413f
00000230: cb83 213d 982d 913e df5a 683f d7f5 933e
00000240: ddc8 ab3e 7b1a 763e 9702 813e 9af8 f03e
00000250: 7088 ca3e 1ebc b03d 92d4 f73f 09c2 a53e
00000260: 1f8c b73e 9e6d ea3d 513d a63d 96b5 103e
00000270: f14f 8c3d dd87 883e 6818 8e3e a812 b73e
00000280: 4a77 203e 206d 963e 4f59 9f3e 2bb1 363f
00000290: 4b8b c93d b990 f03e ed74 0b3e 1a39 063f
000002a0: a197 bb3d 46be 853e 4664 3b3e cd81 693e
000002b0: 6df9 383e 6a36 7e3f 4463 103e 114f 1b3f
000002c0: 2201 e03e 22bd e73e e7ee 933d 4bbb 2a3e
000002d0: 6e50 ae3e 8982 c13e 6ab2 f93e 54ec c93d
000002e0: 960b 203f e016 853e a6a9 993c bd81 4a3e
000002f0: e308 9b3f b886 063e 1d57 143f 9e98 ad3d
00000300: ca8d ab3d 20f7 ac3e 4ef2 373e feb2 1a3e
00000310: 83b4 8b3e a45a 053e 449e 323d fa9a b03e
00000320: 4c71 ce3d 2a3e 413e ab36 103d 4f58 ef3d
00000330: 87d6 0f3e 713f 4c3e 6111 2a3e 3afd 503d
00000340: faf4 3b3d 0494 f93d 9c02 fa3f ae53 f83d
00000350: 8834 e13e 5c57 423f b7d2 a03e 5239 1b3e
00000360: 6908 163e 1cc3 5b3f 5c50 373f b3d3 843e
00000370: 745e 253e 9310 ff3f 96c7 2e3f 0413 0a3e
00000380: a8ad de3d 5f18 f03d 9112 243e 16c9 a23e
00000390: b824 2d3f e161 163f af4b e73c c420 ff3f
000003a0: ffdf 8e3e f437 363f 0bf1 953e ec76 0840
000003b0: 9242 0a3f 712d a43e 313b 713f d296 533e
000003c0: 815e 513e 4007 9c3e fc68 cc3d 1b06 8c3d
000003d0: 5d1e dc3d c839 a93d b757 263d a234 883e
000003e0: 9467 b43d a627 be3d dd6c 1d3e 46e1 cc3d
000003f0: f2e7 293e 910a 4d3e e310 d03e 94e4 3b3e
0.37293208 0.13678567 0.30835754 0.17049463 0.1869773 0.040394336 0.29666293 0.08672767
1.9143577 0.47919002 0.40622395 0.08608203 0.4341427 0.07984254 0.89479065 0.19012794
0.21053614 1.2328176 1.1868238 0.31427887 0.03824054 0.4575531 0.06374169 0.6171683
1.1257268 0.3583914 0.37925163 0.20594965 0.28331172 1.004299 0.16557194 0.29224998
0.3094251 0.6350721 1.9207574 0.033651292 0.08023557 0.93137985 0.2697633 0.503597
0.1268601 0.05019626 0.28738493 0.5081339 0.31017417 0.74914086 0.26223263 0.20534028
0.39452457 0.33081055 0.21900383 0.27995178 1.7085494 0.41883987 0.9953315 0.06620286
0.33910328 1.0403115 0.17069772 0.583395 0.16629073 0.38038564 0.15575948 0.1638219
0.3399728 0.86743397 0.5588487 0.8008353 1.0304184 1.5487486 0.13335599 0.19345333
0.30951488 0.14720629 0.023987459 0.17541812 0.3362026 0.925545 0.58039516 0.38626635
0.12801012 0.1852347 0.15670538 0.55993205 0.20634188 0.16324346 0.34344628 0.120976724
0.19527754 0.345419 0.49017322 0.35264158 0.11136386 0.77346784 0.2740944 0.41641918
0.37368083 0.24006453 0.40534186 0.010298524 1.4002035 0.53131294 0.264572 0.6344334
0.3174255 1.2886481 0.50707215 0.1413975 0.28994623 0.49475423 2.0118816 0.4096659
0.20671935 0.9772938 0.111171804 0.3007848 0.44144285 0.033803605 0.57161707 0.4328843
0.3516393 1.1448256 0.06780735 0.3354904 0.20355773 0.94672084 0.7086384 0.20292552
0.118427075 0.07334988 1.2160498 0.084827706 0.62542987 0.637291 0.4663385 2.164516
0.58093244 0.26870838 0.9913692 0.75471056 0.03943233 0.28355098 0.9076366 0.28898498
0.33551684 0.24033539 0.25197288 0.47064668 0.3955722 0.086296305 1.9361746 0.323746
0.3584909 0.11446689 0.08117164 0.1413177 0.06851185 0.26666155 0.27752995 0.3575642
0.15670505 0.2938013 0.31122825 0.71364087 0.09841021 0.46985415 0.13618822 0.5243088
0.0915978 0.2612173 0.1829997 0.22803421 0.18063898 0.9930178 0.14100367 0.6066752
0.43750864 0.45261484 0.072233014 0.16673009 0.34045738 0.37794903 0.48768932 0.09859529
0.6251768 0.25994015 0.018757652 0.19776054 1.2112087 0.13137329 0.57945424 0.08476375
0.083766535 0.3378229 0.17963526 0.15107343 0.27286157 0.13022858 0.043607965 0.34493238
0.100802034 0.1887137 0.035208385 0.116867654 0.1404668 0.19946076 0.16608192 0.051022746
0.045887925 0.12186435 1.9532046 0.12125336 0.4398539 0.7591455 0.31410763 0.15158585
0.14651646 0.8584459 0.71606994 0.25942764 0.16149312 1.9926933 0.68273294 0.13483816
0.10872966 0.117233984 0.16022708 0.3179404 0.67634153 0.587431 0.028234331 1.9931874
0.2790527 0.7117913 0.29285464 2.1322584 0.5400783 0.3206592 0.94230944 0.20663002
0.20446207 0.3047428 0.09980962 0.06837102 0.10747979 0.08262974 0.040610995 0.26602656
0.088088185 0.09284906 0.1537356 0.10003905 0.16592386 0.20023562 0.40637884 0.18348914

backbone.2.running_var f4 [256]
00000000: 1501 003f ee00 a83e e07d 943e 6fdd 5e3e
00000010: 92ec a63e eb5e 183d a938 7c3e 69e6 553e
00000020: 9708 da40 f4e4 c73e 5d68 3f3f 844e d63d
00000030: 87c7 ef3e b828 e63c e243 0c40 e567 b33e
00000040: d60d a83e c8dd b641 7d15 fe40 221b f93e
00000050: 7b06 163d 7f77 063f 0828 a03d 9c72 793f
00000060: 3e11 9141 9daf 883e 93b0 323f a372 ff3d
00000070: 627a 593e 9b73 d13f ed61 5e3e b419 db3e
00000080: c84f d43e 7872 933f 617c 1f42 bbfb c73c
00000090: 34a6 953d bb64 f03f d22e b33e 96bd 0a3e
000000a0: f39e 403e 883e c23c 4533 a53d 769c 383f
000000b0: c4c5 ac3e b9d0 9e3f 5ce8 0d3f 7e68 a73e
000000c0: 1031 3b3f e306 263f a32d ba3e 5c43 033e
000000d0: eeb4 a840 fd6c 093f fcca 2140 77eb e53d
000000e0: 4f28 1d3f 2476 c73f bd5e fe3d 9082 aa3f
000000f0: 4f50 2c3e f413 a83e 819c 653e 916d 763e
00000100: 5514 0e3f a522 9c3f 62fd 2d3f 11a2 8c3f
00000110: 7b0e 1c40 b69c d941 47a2 e33d fc03 ca3e
00000120: 8596 823e 37b9 523e aad4 6b3c 88f6 9d3e
00000130: 35b5 d53e e78a 0740 b90c f53f ff07 2e3f
00000140: e40a 4d3e 1339 873e 91bd 373e 82f9 8b3f
00000150: a7ea 8f3e 9700 9f3e 5589 423f 9eb1 133e
00000160: 0908 2b3e c0d4 0c3e 0931 9f3f 8681 8b3e
00000170: 0cdc 783d c36c 0940 1ee6 d13e d13e 2440
00000180: 85eb 963f b807 6f3e b4f8 133f af72 293c
00000190: 880c c041 fcc5 403f 3640 873e 411a 983f
000001a0: c4ac 9a3e 554a 2d40 9240 b23f 63f8 aa3d
000001b0: b849 453f ea15 7a3f f486 dd40 67a1 0f3f
000001c0: 7cb9 9c3e 846a 2340 af5a aa3d b67e ce3e
000001d0: c683 893e 7d2f ef3c f9f7 a13f 5945 633e
000001e0: ed0f 4c3e f143 9a41 caee aa3c 001f db3d
000001f0: b0e4 343f 9217 2440 b7eb 2940 6e67 463e
00000200: 0c84 0a3e a2aa 443d 07db 1240 c69f b73d
00000210: 1cba 703f 41f1 423f f095 493f cc48 0141
00000220: 49af a43f 27be 953e 89f3 2b40 94cd c93f
00000230: 9908 053d f041 b13e c75d 0b40 2d8f dd3f
00000240: b1c5 073f 5c1a 573e 55ce 993e 3a47 2d3f
00000250: 1276 fe3e c677 7d3d 6c16 d640 1791 cb3e
00000260: ae45 8c40 a643 083e 1c21 b13d 815e a03d
00000270: 4055 8d3d c8ad c73d c3fb f23e 111d 213f
00000280: 5a1e 8d3e 406a fc3e 7b19 d53e cdb2 cd3f
00000290: 4ab2 e13d 2f1a e13e 878a 353e b076 043f
000002a0: 1218 4d3d 820e 7d3e 1b7b 6f3d 23c5 2a3e
000002b0: 28eb 843e 1614 c43f 6be7 cc3e 9cb1 823f
000002c0: c9fe 883f 9d24 1c3f 60d6 893d 913e 113e
000002d0: 1fb6 0f3f b791 283f 83b0 de3e ecde ef3d
000002e0: 392e d43f be64 9d3e 509c 903c 611a 513e
000002f0: f40f 3f40 6550 e33d 9288 b03f 3065 2a3e
00000300: fa42 c53d f533 143f 6a52 c53e 9632 943d
00000310: 1b4c 513e 3e55 2a3e 8e91 4c3d b615 0e3f
00000320: b115 0e3d ab1b f83d f064 0b3d 96a0 d23d
00000330: 5acd 1f3e 714e 4c3f b159 693e a2cd 493b
00000340: cd0e 653d aedf f03d 28d3 d940 9098 e33d
00000350: b90c aa3f 27df cf3f 62c6 823e 3bfd 173e
00000360: 814c 083e aafb 933f dd18 a73f d7bd a83e
00000370: 3638 3a3e 3c4f db40 74d0 963f 02e7 0f3e
00000380: 0458 053e 5f88 913d 3ab6 603e 9f19 083f
00000390: 29fa b93f 631a 0e3f 72c3 af3c 1165 e140
000003a0: ca50 7f3f f94c 893f 3c79 8d3e 33a9 f940
000003b0: 3958 253f c0a2 fa3e 0e69 123f c09e 5b3e
000003c0: e15e ef3e c560 f53e cb17 3a3e 033f 2e3d
000003d0: 152b 003e 18b6 1c3e c70d 043d 6ae7 863e
000003e0: 947e d33d a5f9 943d 455b db3e c4fc 573d
000003f0: 6b67 b93e 79f1 2a3e 47b7 f63e 8a45 e83d
0.5000165 0.3281321 0.29002285 0.21764158 0.32602364 0.037199896 0.24630989 0.20888676
6.8135486 0.39041865 0.7476862 0.104641944 0.46831915 0.028095588 2.1916432 0.35040203
0.32823056 22.858292 7.940123 0.48653513 0.036627274 0.52526087 0.07820135 0.97440505
18.133419 0.26696482 0.6980068 0.12473037 0.21238092 1.6363405 0.21717043 0.42793047
0.41467118 1.1519308 39.871464 0.024412027 0.07307091 1.878074 0.3499666 0.13548884
0.18810634 0.023711458 0.080664195 0.7211374 0.33744633 1.2407447 0.5543268 0.3269691
0.7312174 0.6485426 0.36362943 0.12818664 5.272086 0.5368193 2.5280142 0.11226552
0.6138963 1.5582929 0.12420414 1.3321095 0.1682751 0.32827723 0.22422983 0.24065234
0.55499774 1.2198073 0.67964756 1.0986959 2.4383838 27.201519 0.11114936 0.39456165
0.25505462 0.20578466 0.014393965 0.3085215 0.41739812 2.117853 1.9144508 0.6798095
0.20023686 0.26410732 0.17943408 1.0935519 0.28108713 0.31055138 0.759908 0.14423224
0.16702284 0.13753033 1.2436839 0.27247256 0.060756728 2.1472633 0.40995878 2.566334
1.1790625 0.23342788 0.57801366 0.010342284 24.006119 0.753021 0.26416177 1.1883012
0.30209935 2.7076619 1.3925955 0.08348157 0.7706561 0.9768969 6.922724 0.56105655
0.30610263 2.5533762 0.08318078 0.40331048 0.26858348 0.029197449 1.26538 0.22194423
0.1992795 19.283175 0.020865817 0.10699272 0.7066145 2.5639386 2.655012 0.19375393
0.13526934 0.04801429 2.2946184 0.08966021 0.9403398 0.76149374 0.7874441 8.080273
1.2865993 0.29246637 2.6867392 1.5765862 0.032478902 0.3462062 2.1775987 1.7309319
0.5303603 0.21006149 0.3004023 0.6768681 0.49699455 0.061881803 6.690237 0.39759132
4.383506 0.13307056 0.08648893 0.07830525 0.06901026 0.09749943 0.47457704 0.62934977
0.2756222 0.49299812 0.41621003 1.6070191 0.11020334 0.4396529 0.17728625 0.517436
0.050071783 0.24712566 0.058467012 0.16676764 0.2596066 1.531863 0.40020308 1.0210452
1.0702754 0.6099337 0.06730342 0.14184023 0.5613727 0.65847343 0.43494043 0.11712441
1.6576606 0.30740923 0.01765266 0.20420219 2.9853487 0.110993184 1.3791678 0.16640162
0.096319154 0.5789178 0.3853944 0.07236211 0.20439188 0.1663408 0.0499435 0.5550188
0.034688655 0.12114652 0.03403181 0.102845356 0.15605679 0.7980719 0.22788121 0.0030792733
0.05592232 0.117614135 6.807026 0.11113083 1.3285133 1.6239976 0.2554198 0.14842694
0.13310434 1.1561177 1.3054463 0.32957336 0.18185505 6.853422 1.1782365 0.14052966
0.13021857 0.07106089 0.21944514 0.53164095 1.4529468 0.5550901 0.0214555 7.043587
0.9973265 1.0726615 0.27631557 7.801904 0.6458774 0.48952293 0.5719155 0.21447277
0.46752074 0.47925392 0.18173139 0.04254056 0.12516434 0.15303838 0.0322397 0.2634843
0.10326877 0.072741784 0.4284307 0.05273129 0.36211714 0.16693677 0.48186705 0.113413885

backbone.4.weight f4 [128, 256]
00000000: da90 44bd 9db2 c23d c02b 5c3d b7a5 debc
00000010: bd9b a3be c718 62ba 8d85 9cbc 4ccc b73c
00000020: a081 8fbb c76e 48bb 4200 7c3d 3a77 8bbd
00000030: f36a 7ebe 202b 18be 4d4f 05bd efc0 323e
00000040: 64f2 afbe c8e1 58bf 9b98 83bf ad0f a8bc
00000050: c126 613e 9e15 d53c 990c 353e 782e 4dbd
00000060: 1d80 cebf 1ca7 083d 2044 c83c d668 59be
00000070: 6d7a 82be 002f 3cbf bfcc 7abe 2b0a 8aba
00000080: 7c7e 5d3c e619 bebe a66f e8bf e723 c63e
00000090: e90e f9bb 0c7c 1a3f 2082 df3d 5b09 dc3d
000000a0: 0679 1dbe 985f 263c 74a2 99be 9a0a 2bbd
000000b0: 71ba 6e3e ee7b 8b3e 2700 703e 1eb6 513e
000000c0: 4468 e7bd c167 d73e 3910 813e ef4e a1bf
000000d0: 7cb8 0a3c 9df2 d43e 5e32 2f3b 9153 723d
000000e0: 95ff 4e3c b638 f5be 8d48 de3e 2ef6 73be
000000f0: 345f dbbe 2fac bc3c e2ce 433e a85e d63b
00000100: 7ed8 32bc 22ac 943e b7cd 483e abdd abbe
00000110: 4995 d73b e980 debf 6d31 b9be 080d 1f3e
00000120: c232 b53e f864 4fbe 06a6 423c 921b 463d
00000130: d8e3 16be 063e 0abc 970c 1f3d 0b4f ac3d
00000140: 034e 9e3e d983 2bbf 601a 77bf 68b0 8cbf
00000150: a74f be3d b777 f2bd f84d bcbe 1524 64bc
00000160: c719 edbd 3648 45bd 4275 813e 685c 383d
00000170: 54d9 323d d5a5 973d b08f 40be 2e78 e8bf
00000180: f653 8bbb ccf5 e23e 8c77 7dbf 39e5 9ebc
00000190: 500d ecbf e439 6e3d 7893 c5be 614a bebe
000001a0: daa6 913c 9946 aebe 6a85 f8bb 3fdb 5a3e
000001b0: fa48 afbf 474c abbc 85e1 d53a de66 d7be
000001c0: 7102 f9bb 0551 303a 41e9 53be 2c6c f8bd
000001d0: 014e 39bc 3a0f c0ba 8591 37bf b10a 29bc
000001e0: 11de 1abd b823 6dbf a2ed debe 1b57 a73d
000001f0: a347 153c 5fb3 bebc dda1 5bbd ee32 233b
00000200: d88a 563c c95c b2bd de87 3ebf 2315 87bd
00000210: b9e9 8f3e 8472 983b df39 c1be 7135 a53c
00000220: 7893 49bb 3e56 483d 9d73 51be 0e40 11bc
00000230: b199 1c3e c3ba d3bd 8cf4 82bc 9770 823d
00000240: 95e6 8fbc 2e00 3abd e526 b23e 24ac 23bf
00000250: fba4 f4bd 0a94 7d3c 0ea6 93bc 653b d6bc
00000260: d5cb 01be d00d 223d 600e 14bf 13bd ee3d
00000270: 4691 efbe 5dec 943c 7069 483e 1d9b e1be
00000280: 287a e6be 3e06 04bd 3db4 05bd 8feb f2bd
00000290: 693c ce3c 4b73 f93c 173b c0bc 003b cf3e
000002a0: 3228 343e bf2e d33d 901c ad3d 8003 743d
000002b0: 17e1 cabc 126e 4e3c 1109 ca3d 5e36 58be
000002c0: 6178 77be 340f 5bbd dbd2 01c0 1428 2e3e
000002d0: 2cab 0cbd 4883 38be fa6b 903e 7200 66bd
000002e0: a7e1 64bc b5d6 363e c894 623b 55b8 2c3d
000002f0: c712 7dbb a8a6 013d 2549 95bd 2983 003e
00000300: e954 273e 0cbc 2a3e 0477 07bd b81f 0b3e
00000310: a7ae f7bd 9b26 adbd 2985 61bd 9cf0 76bf
00000320: 0624 07be d2c5 503d d7f4 c83d eca4 483a
00000330: a939 4fbe 51c4 16be e360 89bf b113 3abc
00000340: 1de4 02bc 4649 5abc a5f6 80bc eb53 0a3e
00000350: 4baa 0f3d 3473 c43c 6066 453e ed15 9b3d
00000360: 99b6 b23d 5e7a 0f3e 0f04 44bc 851f 23be
00000370: 92a6 fabe cd4f b43c 572d 38bd b4c2 2abe
00000380: d730 eaba 436e 083f 432f 7fbd 1779 a53e
00000390: 8ed7 7bbd c685 7b3e bfcf f53d 2f14 edbc
000003a0: 69fb fdbf 4113 ec3d dfcb 4ebd 70a8 06bd
000003b0: f448 623c 6fb2 e4bc b43a fa3c e50c 1fbc
000003c0: 6015 243e c7f3 07bc bc77 e23c 0752 d9bd
000003d0: 2889 503d ea80 3f3d b171 abbc 8378 11bd
000003e0: 8d90 813d 247a 14bd 0016 733d 3420 93bd
000003f0: f23c cabc afa0 ef3b 6231 0a3c 5754 78be
-0.047989704 0.09506724 0.05375266 -0.027178628 -0.31954756 -0.0008624908 -0.01910665 0.022436284
-0.004379466 -0.0030583607 0.061523683 -0.0680985 -0.24845485 -0.14860201 -0.03254633 0.17456411
-0.34364617 -0.84719515 -1.0280946 -0.020515287 0.2198744 0.026011284 0.17680587 -0.050093144
-1.6132847 0.033362493 0.024446547 -0.21231398 -0.25484028 -0.73509216 -0.24492167 -0.0010531595
0.013518926 -0.37129134 -1.8159072 0.38699266 -0.0076006544 0.6034553 0.10913491 0.10743972
-0.15378198 0.010154627 -0.30006754 -0.041758157 0.23313309 0.27242988 0.23437558 0.20479628
-0.11299184 0.42071345 0.2520769 -1.2602214 0.008466836 0.4159135 0.0026732902 0.059161726
0.012634178 -0.4789483 0.43414727 -0.23824379 -0.42846072 0.023031322 0.19121888 0.0065420456
-0.010915874 0.29037577 0.19609724 -0.33567557 0.0065790755 -1.738309 -0.3617052 0.15532315
0.35390288 -0.2025336 0.011880403 0.048366137 -0.14735353 -0.008437639 0.038830366 0.08413514
0.30918893 -0.6699806 -0.9652462 -1.0991335 0.09292536 -0.1183924 -0.36778235 -0.013924618
-0.11577182 -0.04816457 0.25284773 0.04501 0.04366429 0.07404677 -0.18804812 -1.8161676
-0.0042519523 0.44328153 -0.9901054 -0.019396411 -1.8441563 0.058160678 -0.38589072 -0.37166122
0.017779756 -0.34038237 -0.0075842636 0.21372698 -1.3694146 -0.020910395 0.001631782 -0.4207067
-0.007599168 0.000672594 -0.20694448 -0.12130007 -0.0113101015 -0.0014652975 -0.7170642 -0.01031749
-0.037809435 -0.9263263 -0.43540674 0.08170911 0.009111318 -0.02327889 -0.05362116 0.0024902183
0.013094626 -0.087091036 -0.74426067 -0.065958284 0.28108004 0.004652323 -0.37739465 0.020167084
-0.0030758064 0.048910372 -0.20454259 -0.0088653695 0.15293004 -0.10338356 -0.01598575 0.06369131
-0.017566005 -0.045410328 0.347953 -0.6393454 -0.1194553 0.01547719 -0.018023517 -0.026151368
-0.12675412 0.039563954 -0.57834435 0.11657157 -0.46790522 0.018179113 0.19571471 -0.44063655
-0.45015073 -0.032232516 -0.03264259 -0.118613355 0.02517529 0.030450484 -0.023465676 0.404747
0.17593458 0.103116505 0.084527135 0.05957365 -0.024765534 0.012599485 0.098650105 -0.2111449
-0.24167015 -0.053481296 -2.0284946 0.17007476 -0.03434293 -0.1801883 0.2820738 -0.05615277
-0.013969815 0.17855342 0.0034573544 0.04216798 -0.0038615928 0.031653076 -0.07289342 0.12550034
0.16340984 0.16673297 -0.033072487 0.13586318 -0.12093859 -0.08454629 -0.055058632 -0.9646089
-0.13197336 0.050969906 0.098123245 0.000765397 -0.2023684 -0.14723326 -1.0732692 -0.011357234
-0.007988957 -0.013323134 -0.01574261 0.13508575 0.035074513 0.023980714 0.19277334 0.075725414
0.08726234 0.14011523 -0.011963858 -0.15929992 -0.48955208 0.022010708 -0.044965114 -0.16675836
-0.0017867339 0.53293246 -0.06230093 0.32318947 -0.061484866 0.2456275 0.12002515 -0.028940288
-1.9842349 0.1152711 -0.050487395 -0.03287548 0.013811339 -0.027917115 0.03054557 -0.009707664
0.16023779 -0.008297867 0.027644984 -0.106113486 0.050912052 0.0467538 -0.020928236 -0.03551532
0.06326399 -0.036249295 0.059347153 -0.07183877 -0.024687264 0.007312856 0.008434625 -0.24250923

backbone.4.bias f4 [128]
00000000: cacd e03d bba8 11bf 1d99 b53d 0bfd 35bf
00000010: 2ebb c9be 4658 473f 905e 97be 4cf5 e5bf
00000020: 0e41 cebc 832e c1bf 2165 08bf 52dc 01bf
00000030: d995 26c0 645f 3e3f 0118 50c0 830e 1bc0
00000040: 367d eabf 2704 f2be 2fbe 0fc0 e019 46bf
00000050: 99f9 9f3f f269 013f 3a57 b8bf cfdd 42bf
00000060: f9a4 c7be 6a18 e4bd 051b edbf a8ad 323e
00000070: d6bf 04c0 ade5 0fbf 3796 2d3f 5611 c43e
00000080: b2c9 013f d461 c6bf ec29 31c0 809a 723e
00000090: e24a dbbe 7fde 80bf 1508 19be e4c3 a4bf
000000a0: 061f ad3e 7c37 8aba 7642 e93f 7ebe 983f
000000b0: 3a93 dfbe 3119 6fbf f889 f3bf e52b 30bf
000000c0: 8b14 2d3f cb32 13bf f949 41bd 90b8 8ebf
000000d0: 6443 58be 40d0 57be 9bba 14be bcfc 0f3e
000000e0: 8f94 71be 6f68 66be da1d 42bf 044a 21bf
000000f0: d78c 31bf 7647 a6be 83c6 80bf 7f75 0fbf
00000100: decd 40bf 053d 433d d91e 41bd 53ef 2ec0
00000110: 33d5 e43e fb0b dfbf 1727 02be b9a9 afbf
00000120: f8ff 65bf bffc a0bf efae 893f f0d3 d73e
00000130: 3ef3 1abf 1ea6 31c0 e79c 73bf e9f4 46bf
00000140: faef adbe 83d7 a53d 0b1f b43e b8a5 e1bc
00000150: ffcc c0bf 378b cabf 9dbb aa3f 7f3e 3e3f
00000160: 7bce b03f 49f4 273f 4dbd 103d 4144 3dbe
00000170: 8193 dcbf 97cd a6bd 3d0b 1fbe 04a5 96be
00000180: 4917 06bf 780c 86bf ce9c e4be d5c2 29bf
00000190: cb25 7bbc 89e2 37bf 159a 973e fbae 5bbf
000001a0: 6f9d c93e 64c9 c6bf 39d5 c9be d329 9d3e
000001b0: c4d4 a8bf 8bb8 d7be 1d9f ecbf 5369 a6be
000001c0: c473 9cbf aa2d 1fbf d277 62bf d32d 91be
000001d0: dcfa 0ebd 94c8 2dbf 3171 9c3d d6c7 4cbf
000001e0: 0887 b9bd d636 01be 6ac1 83bf 4de8 f1be
000001f0: 0f39 05bf aac4 d2be c0a3 9abf d1f8 8c3d
0.10976751 -0.5689809 0.08867095 -0.7108924 -0.3940062 0.7786907 -0.29564333 -1.7965484
-0.025177505 -1.5092319 -0.5327931 -0.5072681 -2.602896 0.74364305 -3.251465 -2.4227607
-1.8319461 -0.47268793 -2.245983 -0.7738323 1.2498046 0.50552285 -1.440162 -0.76119703
-0.38993052 -0.11137469 -1.8523871 0.17449057 -2.0742087 -0.5620983 0.67807335 0.38294476
0.5069839 -1.5498605 -2.7681837 0.2369175 -0.4283057 -1.00679 -0.1494449 -1.2872281
0.33812732 -0.00105451 1.8223407 1.1933134 -0.43667012 -0.93397814 -1.902648 -0.6881698
0.6760947 -0.5749938 -0.047189686 -1.1150074 -0.21119457 -0.21075535 -0.1452431 0.14061254
-0.23591827 -0.22500776 -0.758268 -0.63003564 -0.6935553 -0.32476395 -1.0060581 -0.5603866
-0.7531413 0.047665615 -0.04714856 -2.7333572 0.44693908 -1.7425531 -0.12710224 -1.372367
-0.898437 -1.2577132 1.075651 0.42153883 -0.6052741 -2.775764 -0.9516129 -0.77717453
-0.3397215 0.08097746 0.35179934 -0.027544841 -1.506256 -1.5823735 1.3338505 0.7431411
1.3813013 0.65607125 0.03533678 -0.18483068 -1.7232515 -0.08144682 -0.15531631 -0.29422772
-0.5237928 -1.0472555 -0.44650882 -0.66312915 -0.015328835 -0.7183004 0.29609743 -0.85813874
0.39377925 -1.553021 -0.39420488 0.30695972 -1.3189931 -0.42132983 -1.8486058 -0.3250223
-1.2222829 -0.6217905 -0.8846408 -0.28355274 -0.034907207 -0.6788418 0.07638777 -0.79992425
-0.09058958 -0.12618575 -1.02934 -0.47247544 -0.5204019 -0.41165668 -1.2081223 0.068833955

backbone.6.weight f4 [128]
00000000: 6280 2b3f 0cae 683f 6bbc 6e3f 248b 363f
00000010: a1e8 663f fe2a 6b3f 455d 483f d876 183f
00000020: 2707 2d3f 06c4 703f 3646 4f3f 7bb4 2c3f
00000030: 78e1 3f3f 02c6 563f d569 873f c138 613f
00000040: 4e43 313f 3450 2c3f 530f 703f 1dc9 573f
00000050: 70a6 6b3f 8da0 5a3f 464a 873f 10b2 673f
00000060: eb64 323f c9b3 953f 6064 7d3f bfcc 843f
00000070: f87a 7c3f 0152 183f 5a66 5d3f de04 593f
00000080: e4d8 5e3f 7e07 3d3f 266a 933f ab1b 5c3f
00000090: 09a2 1d3f 4bb0 723f f789 883f 76b7 693f
000000a0: 1520 743f a5f3 433f a52a 3c3f 0094 633f
000000b0: e18f 763f 16d3 973f 6dbf 5c3f 0f0e 173f
000000c0: 5186 1f3f 0c80 233f 3cef 4d3f 5014 403f
000000d0: 919b 2c3f 585d 123f 8549 8f3f 6d37 6e3f
000000e0: a21a 263f 441c 893f 51c3 573f 1740 2a3f
000000f0: 24bb 513f bb34 5b3f f61e 8f3f dc1e 443f
00000100: 4152 593f ae14 9d3f 7754 443f ad73 b93f
00000110: ee5d 803f 2914 513f bd32 8f3f e187 a33f
00000120: 3b9b c53f b94c 5c3f 5dcb 623f c25c 903f
00000130: 1cc3 113f 95f8 213f 511a 1e3f 2e5b 433f
00000140: 839d 9d3f fa47 8b3f f6c2 433f 956f 233f
00000150: 5cb4 833f 5783 843f d033 2c3f f86d 833f
00000160: 7925 343f 5bbd 393f 39d0 7b3f 6ef7 8e3f
00000170: 94a0 073f f56c 873f df5e 313f de9b 193f
00000180: 5de7 323f 5682 5d3f b02e 5f3f 81e7 373f
00000190: 7682 913f bc2d 243f e497 383f 5735 3b3f
000001a0: e77f 233f b963 333f 1cba 8a3f 055a 843f
000001b0: 6aba 203f 9894 623f 781b 163f 248d 773f
000001c0: d6fc 1a3f 314f 4e3f e059 913f 622d 643f
000001d0: 0c5a 8b3f c4e6 533f 6206 803f e37b 3a3f
000001e0: 1688 2c3f e18d 693f 1796 3f3f bb84 253f
000001f0: 6c55 803f ee53 2f3f 772f 6b3f b501 7d3f
0.6699277 0.90890574 0.93256253 0.7130606 0.90198714 0.91862476 0.7826732 0.5955634
0.6758904 0.9404911 0.8096651 0.6746289 0.74953413 0.83895886 1.0579172 0.87977225
0.69243324 0.6730988 0.9377338 0.8429125 0.9205084 0.8540123 1.0569541 0.90506077
0.6968524 1.1695491 0.98981285 1.0374984 0.98625135 0.5950013 0.864843 0.8477305
0.870497 0.7383956 1.1516769 0.8597972 0.6157537 0.9480025 1.0667104 0.91295564
0.95361453 0.7654365 0.7350257 0.88897705 0.9631329 1.1861293 0.8622959 0.59005827
0.62314326 0.6386726 0.8044317 0.75030994 0.67424875 0.5717368 1.1194311 0.93053323
0.6488439 1.0711751 0.84282404 0.66504043 0.8192618 0.85627335 1.1181324 0.7660959
0.84891135 1.2271936 0.76691383 1.4488426 1.0028665 0.81671387 1.1187359 1.2775842
1.5437998 0.8605457 0.8859156 1.1278307 0.5693834 0.6326993 0.61758906 0.76311004
1.2313694 1.088134 0.7646936 0.63842136 1.0289416 1.0352582 0.6726656 1.0267935
0.7036968 0.7255456 0.983646 1.116926 0.529794 1.0580126 0.69285387 0.6000346
0.6988428 0.86527 0.87180614 0.7183762 1.1367939 0.64132285 0.72106767 0.73128265
0.6386704 0.7007404 1.0838046 1.0339972 0.62784445 0.88507986 0.58635664 0.9669974
0.6054205 0.80589586 1.1355553 0.8913175 1.0886855 0.82773995 1.0001948 0.72845286
0.6739515 0.91232115 0.74838394 0.64655656 1.0026069 0.6848744 0.918693 0.9883073
